…
validation data (randomly 0.2 is selected for cross validation).
Now finally the model selection can be done. So I tested different architectures and algorithms such as ANN,CNN and RNN but the
maximum and efficiency is gained while using the simple artificial neural network architecture. This architecture consists of 8
layers including the input and output layers and 6 hidden layers. The layer details are mentioned below – 

_________________________________________________________________
Layer (type)                 Output Shape              Param #   
=================================================================
input_7 (InputLayer)         (None, 166)               0         
_________________________________________________________________
Hidden_Layer_1 (Dense)       (None, 600)               100200    
_________________________________________________________________
Hidden_Layer_2 (Dense)       (None, 500)               300500    
_________________________________________________________________
Hidden_Layer_3 (Dense)       (None, 500)               250500    
_________________________________________________________________
Hidden_Layer_4 (Dense)       (None, 500)               250500    
_________________________________________________________________
Hidden_Layer_5 (Dense)       (None, 300)               150300    
_________________________________________________________________
Hidden_Layer_6 (Dense)       (None, 50)                15050     
_________________________________________________________________
Output_Layer (Dense)         (None, 1)                 51        
=================================================================
Total params: 1,067,101
Trainable params: 1,067,101
Non-trainable params: 0
_________________________________________________________________


   The reason behind choosing this architecture because this gives a good accuracy over the data and is very computationally simple and efficient as compared to CNN and RNN. While training the model I have used the following settings –
…
